targetstatedict.pt (torch, 3799 bytes, 6 tensors)

layer1.weight f4 [16, 2]
000000 a9 89 8f 3c c8 5d 01 3c 67 93 82 3c 59 2b 2a bd
       0.017521696 0.007895894 0.015939428 -0.041545246
000010 f5 c6 4f 3c df ee 85 3a a4 5d 9d 3d 4e f5 04 3f
       0.012681712 0.0010218284 0.07683876 0.51936805
000020 ad 78 03 3d dc b6 a6 3c be 97 c7 3c d3 ab 67 bd
       0.032097507 0.020350866 0.024364349 -0.05656035
000030 de 66 22 3c fd d6 30 bd 11 60 8f 3c 57 ff 59 bd
       0.009912221 -0.04317378 0.017501863 -0.053222027
000040 fa ef 63 3d 71 a7 1a 3d ca 05 94 3c 80 6b 1d bd
       0.05564878 0.03775734 0.018069167 -0.038432598
000050 a6 02 60 3d c6 87 54 3d 3d 1a 01 3d 9f ac ef 3d
       0.054690026 0.051887296 0.031519163 0.11702847
000060 65 d9 11 bc 3f 7f bf 3b a3 6a e4 3d e9 13 1f bf
       -0.008901929 0.0058440263 0.11153152 -0.62139755
000070 ff 49 ee 3a 10 9d 33 bd 52 19 b8 3c e1 e9 f9 3c
       0.0018180012 -0.04385096 0.022473011 0.03050703

layer1.bias f4 [16]
000000 b0 25 9d 3f 1e 26 a3 3f 7f 86 9e 3f ce 5a a2 3f
       1.2277126 1.2746007 1.2384795 1.2683961
000010 0d 8a 9f 3f ab 9e 94 3f 21 b2 9d 3f 33 4f 98 3f
       1.2464005 1.1610922 1.2319986 1.189917
000020 81 1a a2 3f f1 22 a2 3f 89 68 a2 3f 63 2e 9e 3f
       1.2664338 1.2666913 1.2688152 1.2357906
000030 f5 74 23 bd af fc a0 3f c9 28 9c 3f 1d f9 9b 3f
       -0.03990646 1.2577113 1.2199947 1.2185398

layer2.weight f4 [16, 16]
000000 4a 09 8d 3f f6 79 96 3f 00 79 96 3f d5 ed 6a 3f
       1.101846 1.175597 1.1755676 0.9176915
000010 08 51 80 3f fb f2 68 3f 91 72 92 3f d4 e3 84 3f
       1.0024729 0.9099576 1.1441213 1.0382028
000020 94 2f 3b 3f 5e 3b 94 3f 21 72 34 3f 68 d0 75 3f
       0.73119473 1.1580617 0.70486647 0.9602113
000030 46 c1 10 3c 70 aa 29 3f 06 66 9f 3f fa 7e 5f 3f
       0.0088351425 0.6627569 1.245301 0.87303126
000040 fd ac 8d 3f a9 b3 93 3f f4 b2 93 3f e0 d2 53 3f
       1.1068417 1.1539203 1.1538987 0.82743645
000050 9d b4 6c 3f 5e a9 5b 3f 21 4c 81 3f 0c 09 75 3f
       0.92463094 0.8580531 1.0101358 0.9571693
000060 20 ea 2c 3f cf 0a 96 3f 46 4a 2d 3f f2 66 68 3f
       0.67544746 1.1722049 0.6769146 0.9078208
000070 f3 ac 7e 3b ac 85 15 3f 59 ec 93 3f 8f f7 49 3f
       0.003886041 0.5840709 1.1556503 0.7889337
000080 43 03 8d 3f 00 ed 98 3f 09 ac 97 3f ab b6 5e 3f
       1.101662 1.1947327 1.1849376 0.8699748
000090 98 4a 7c 3f ae 36 63 3f d2 bf 8d 3f ba f1 82 3f
       0.9855132 0.8875531 1.1074164 1.0230019
0000a0 7e 2b 3a 3f 76 fe 94 3f 2f d5 37 3f 29 66 78 3f
       0.72722614 1.1640155 0.7180967 0.97030884
0000b0 9e 05 65 3c a6 3e 26 3f 65 cd 9d 3f 1c 65 58 3f
       0.01397839 0.64939344 1.2328306 0.8452928
0000c0 dd 92 8d 3f 61 25 89 3f cf e1 8f 3f 58 ec 46 3f
       1.1060444 1.0714532 1.1240786 0.7770438
0000d0 08 a0 63 3f 48 b8 48 3f a1 49 6a 3f b6 f7 61 3f
       0.88916063 0.7840619 0.915186 0.882686
0000e0 bd 99 20 3f 08 29 86 3f d7 4d 1f 3f 49 5f 56 3f
       0.62734586 1.0481272 0.6222815 0.83739144
0000f0 b8 04 8d ba d4 56 0f 3f 1a de 84 3f fa 5e 45 3f
       -0.0010758853 0.55991864 1.038028 0.7709805
000100 af 28 93 3f 69 23 9e 3f 7d 19 9c 3f 82 d1 80 3f
       1.1496791 1.2354556 1.2195278 1.0063937
000110 5f e3 8e 3f c0 5c 85 3f b7 61 9c 3f 83 70 9a 3f
       1.1163138 1.041893 1.221732 1.2065586
000120 87 ab 62 3f f7 8d 9b 3f e8 1d 5b 3f 64 42 8c 3f
       0.8854298 1.2152699 0.8559251 1.0957761
000130 bc 70 99 bc d9 f3 3f 3f 02 83 a6 3f 46 47 83 3f
       -0.018730514 0.74981457 1.300873 1.0256126
000140 ee 4b 8c 3f a9 e2 92 3f 94 e9 91 3f c2 60 77 3f
       1.0960672 1.1475421 1.1399407 0.96632016
000150 20 20 87 3f ee 00 73 3f fd 72 92 3f 6d 0e 8c 3f
       1.0556679 0.94923294 1.1441342 1.0941902
000160 71 06 4d 3f 33 3e 94 3f ff 28 4b 3f bb b1 85 3f
       0.80087954 1.1581482 0.7935943 1.0444864
000170 43 85 97 3c a4 21 34 3f eb ee a1 3f e3 99 70 3f
       0.018496161 0.7036383 1.2651037 0.9398481
000180 e6 b1 8f bc 9a aa 17 bc 1e d6 59 3c 7b ba 04 b9
       -0.017540883 -0.009256983 0.013295678 -0.0001265797
000190 a1 03 1f bc ab 28 75 bc cc b2 95 bc a3 01 87 bc
       -0.009705455 -0.014963309 -0.018273734 -0.016480273
0001a0 7f c8 81 bb 27 72 2f 3c 0c f6 2c 3c 22 45 9a bc
       -0.0039606686 0.010708368 0.010556709 -0.018831793
0001b0 7d 8f 47 3c 8a 57 7a bc a3 44 87 bb 08 b8 01 bc
       0.012180206 -0.01527966 -0.004128055 -0.007917412
0001c0 b6 b3 8e 3f a1 f6 96 3f e0 c8 93 3f 24 01 64 3f
       1.1148593 1.1794015 1.1545677 0.8906424
0001d0 93 16 80 3f 86 86 6a 3f be 76 8e 3f b9 78 88 3f
       1.0006889 0.91611516 1.1129987 1.0661842
0001e0 7c 6f 37 3f 10 31 97 3f d4 07 3e 3f 3a f8 78 3f
       0.71654487 1.1811848 0.74230695 0.97253764
0001f0 ac 71 90 3c 3a c6 2a 3f cd 9c 9e 3f 4d 9d 63 3f
       0.017632328 0.6670872 1.2391602 0.88911897
000200 e9 6d 84 3f c3 6a 7e 3f dd bd 8c 3f a7 fd 36 3f
       1.0346042 0.99381655 1.0995442 0.7148079
000210 33 7e 53 3f c7 ca 3c 3f 95 83 64 3f 61 34 5c 3f
       0.8261444 0.73746914 0.8926328 0.86017424
000220 e5 ea 1b 3f cf a6 7d 3f 71 50 16 3f 6f 25 49 3f
       0.60905296 0.99082655 0.58716494 0.78572744
000230 cc d1 83 bc d8 b0 07 3f 18 86 84 3f bf cb 3b 3f
       -0.01609125 0.5300422 1.0353422 0.73357767
000240 36 2b 89 3f d3 d2 85 3f ce 96 8e 3f a9 29 43 3f
       1.0716312 1.0454963 1.1139772 0.76235443
000250 a9 2f 5a 3f 80 e0 45 3f ee f6 64 3f 13 67 63 3f
       0.85228974 0.77295685 0.89439285 0.88829154
000260 f2 17 21 3f c7 e9 84 3f b3 b2 1a 3f e9 15 52 3f
       0.6292716 1.0383843 0.60428923 0.8206468
000270 4f c4 39 bc 54 dd 0e 3f 87 36 85 3f 5d 4a 44 3f
       -0.0113383075 0.5580647 1.0407265 0.7667597
000280 a6 f5 89 3f fb 92 88 3f e0 54 8f 3f 70 bc 49 3f
       1.0778091 1.0669855 1.1197777 0.7880316
000290 6f bd 63 3f df d2 46 3f ec 9d 6c 3f 9f 08 69 3f
       0.8896093 0.77665514 0.9242847 0.9102878
0002a0 70 d4 20 3f 81 e1 84 3f d1 70 26 3f f6 78 56 3f
       0.62824154 1.0381318 0.65015894 0.8377832
0002b0 84 c7 b7 ba b0 18 12 3f 10 50 8a 3f 16 a0 44 3f
       -0.0014021252 0.5706892 1.0805683 0.7680677
0002c0 33 ce 86 3f 08 c3 85 3f cd e1 8d 3f a4 27 42 3f
       1.0531677 1.0450144 1.1084534 0.75841737
0002d0 77 43 5a 3f 58 a8 41 3f ab 16 66 3f 29 89 64 3f
       0.85259193 0.756475 0.8987834 0.8927179
0002e0 88 98 1f 3f 64 2d 84 3f e1 bc 1f 3f e1 80 50 3f
       0.6234212 1.0326352 0.6239758 0.81446654
0002f0 3f 7c 0f 3c d6 5e 06 3f a4 67 83 3f 7a 72 3f 3f
       0.00875765 0.5248846 1.0266004 0.7478405
000300 fa 44 d3 3b 45 03 70 3c 8a f9 cd bb 28 1c 03 38
       0.0064474316 0.014649217 -0.006285851 3.1259056e-05
000310 62 b4 24 3c 09 b2 9a bc 16 4c 67 3c 29 46 84 bc
       0.010052772 -0.018883722 0.014117261 -0.016146736
000320 ac 18 8d 39 2d 91 59 bb 98 7e 28 bc f5 22 29 3b
       0.00026911998 -0.0033198104 -0.010284089 0.002580819
000330 05 46 84 3c 8e 09 bb bb 37 ef 3d bc 5b a3 ec bb
       0.01614667 -0.005707926 -0.011592678 -0.007221622
000340 23 3f 8c 3f c9 d7 96 3f 37 72 93 3f 7f ed 63 3f
       1.0956768 1.1784602 1.1519231 0.89034265
000350 40 1a 7b 3f f9 d1 63 3f e1 ae 89 3f 92 ad 83 3f
       0.9808693 0.8899227 1.0756494 1.0287344
000360 f0 a0 3c 3f 49 eb 94 3f e9 52 37 3f 67 dc 7a 3f
       0.7368307 1.1634303 0.71610886 0.9799256
000370 fb 7d 83 3c 8c 1c 28 3f d5 dd 97 3f 96 fc 5b 3f
       0.016051283 0.6566856 1.1864573 0.8593229
000380 d6 05 87 3f 08 da 8b 3f dd fc 8d 3f 87 7f 4b 3f
       1.0548656 1.0925913 1.1092793 0.79491466
000390 33 0e 6d 3f c7 9b 4b 3f 48 a3 73 3f 9e 58 71 3f
       0.9259979 0.7953457 0.9517102 0.94275844
0003a0 97 32 2a 3f b7 d4 87 3f 2c 51 23 3f b3 cc 63 3f
       0.66483444 1.061179 0.63795733 0.8898422
0003b0 e4 61 50 3b 8c dd 16 3f 8c 32 8d 3f 82 d7 4b 3f
       0.0031796629 0.58931804 1.1031051 0.79625714
0003c0 ae ea 88 3f 13 f8 87 3f 5d 01 8f 3f a8 bb 4b 3f
       1.0696619 1.0622581 1.1172291 0.79583216
0003d0 44 84 64 3f e4 1f 47 3f 3f ac 6a 3f 85 fd 63 3f
       0.8926432 0.77783036 0.91669077 0.89058715
0003e0 21 29 27 3f 9b d6 83 3f 3b 50 23 3f 66 cc 58 3f
       0.6529713 1.0299867 0.63794297 0.8468689
0003f0 bc 59 1a bc 57 63 0e 3f 16 15 87 3f 54 44 44 3f
       -0.009420808 0.5562033 1.055331 0.7666676

layer2.bias f4 [16]
000000 21 26 a9 3f 9f 1c a5 3f ed 38 aa 3f be 22 93 3f
       1.3214761 1.289936 1.3298622 1.1494977
000010 6c 7a af 3f c3 3a a6 3f 29 22 83 bc 3a e4 a8 3f
       1.3709235 1.2986683 -0.0160075 1.3194649
000020 53 6c 8a 3f 79 b3 8e 3f e2 5d 93 3f b2 6c 8f 3f
       1.0814308 1.1148521 1.1513026 1.1205046
000030 e1 0b 27 bc 13 51 a7 3f 20 ea 97 3f 91 d8 91 3f
       -0.010195703 1.3071617 1.1868324 1.1394216

layer3.weight f4 [4, 16]
000000 93 d2 44 3f 19 47 3e 3f 87 5f 48 3f c8 f4 43 3f
       0.7688381 0.74327236 0.78270763 0.7654538
000010 ba df 82 3f a7 4d 47 3f 85 08 3c 3c 33 2c 4f 3f
       1.0224526 0.77852863 0.011476641 0.8092682
000020 e0 3d 30 3f d6 3a 3f 3f c1 43 35 3f ca 8d 31 3f
       0.68844414 0.7469915 0.7080651 0.6935698
000030 bc 93 9f 3c eb 40 4b 3f 35 c8 36 3f 1b cb 3b 3f
       0.019479625 0.7939593 0.7139924 0.7335679
000040 75 ab 21 3f d9 96 1d 3f be 85 28 3f 61 78 1f 3f
       0.6315225 0.615583 0.65829074 0.6229306
000050 11 09 4a 3f 65 2b 1a 3f b3 55 83 3c 9a a7 27 3f
       0.78920084 0.60222465 0.016032076 0.65490115
000060 8a 1a 07 3f 1e 33 1e 3f 67 8a 16 3f 63 0d 14 3f
       0.5277487 0.6179675 0.58804935 0.57832927
000070 b0 84 48 bc 5f d4 20 3f 87 d9 12 3f d4 22 19 3f
       -0.012238666 0.6282405 0.5736317 0.5981877
000080 86 90 44 3f 69 40 41 3f bf db 4d 3f c9 d5 43 3f
       0.76783025 0.7548891 0.8041343 0.76498085
000090 b0 70 79 3f ae f3 44 3f 8c 74 5f bc ff 97 4e 3f
       0.9743757 0.76934326 -0.013638627 0.8070068
0000a0 b1 c5 28 3f 68 62 3a 3f 0a e4 34 3f 97 b2 39 3f
       0.65926653 0.72806406 0.7066046 0.7253813
0000b0 4b 16 2d 3c 28 f4 4a 3f 02 6e 3d 3f 87 64 36 3f
       0.010564397 0.792788 0.73995984 0.7124714
0000c0 d4 e6 4c 3f ed 37 4e 3f 00 59 4d 3f b2 ef 50 3f
       0.80039716 0.80554086 0.8021393 0.81615746
0000d0 87 c6 4e 3f ad 29 4d 3f fe 88 9a bc ef 68 4e 3f
       0.8077168 0.8014172 -0.018864151 0.80628866
0000e0 26 86 49 3f dc 53 51 3f 67 b8 4f 3f 40 79 4d 3f
       0.7872032 0.81768584 0.8114075 0.8026314
0000f0 e1 3b 8e 3c cb f9 4e 3f 41 de 4f 3f 52 d8 4f 3f
       0.017362537 0.80849904 0.8119851 0.81189454

layer3.bias f4 [4]
000000 f9 02 1e 3f b5 0e 21 3f 7c 63 43 3f ad 14 83 3f
       0.61723286 0.62913066 0.76323676 1.0240685
